…
   "execution_count": 41,
   "id": "cefd4a54",
   "metadata": {
    "colab": {
     "base_uri": "https://localhost:8080/"
    },
    "id": "cefd4a54",
    "outputId": "8b381ab0-853a-4724-e9f0-f620be7b52ac"
   },
   "outputs": [
    {
     "name": "stdout",
     "output_type": "stream",
     "text": [
      "Model: \"sequential\"\n",
      "_________________________________________________________________\n",
      " Layer (type)                Output Shape              Param #   \n",
      "=================================================================\n",
      " lstm (LSTM)                 (None, 1, 128)            105472    \n",
      "                                                                 \n",
      " dropout (Dropout)           (None, 1, 128)            0         \n",
      "                                                                 \n",
      " lstm_1 (LSTM)               (None, 128)               131584    \n",
      "                                                                 \n",
      " dropout_1 (Dropout)         (None, 128)               0         \n",
      "                                                                 \n",
      " dense (Dense)               (None, 2)                 258       \n",
      "                                                                 \n",
      "=================================================================\n",
      "Total params: 237314 (927.01 KB)\n",
      "Trainable params: 237314 (927.01 KB)\n",
      "Non-trainable params: 0 (0.00 Byte)\n",
      "_________________________________________________________________\n"
     ]
    }
   ],
   "source": [
…
   "execution_count": 55,
   "id": "40d4c447",
   "metadata": {
    "colab": {
     "base_uri": "https://localhost:8080/"
    },
    "id": "40d4c447",
    "outputId": "22b70396-3eb0-46c7-d685-08cf7426cbab"
   },
   "outputs": [
    {
     "name": "stdout",
     "output_type": "stream",
     "text": [
      "Model: \"sequential_1\"\n",
      "_________________________________________________________________\n",
      " Layer (type)                Output Shape              Param #   \n",
      "=================================================================\n",
      " gru (GRU)                   (None, 1, 77)             36036     \n",
      "                                                                 \n",
      " dropout_2 (Dropout)         (None, 1, 77)             0         \n",
      "                                                                 \n",
      " gru_1 (GRU)                 (None, 1, 77)             36036     \n",
      "                                                                 \n",
      " dropout_3 (Dropout)         (None, 1, 77)             0         \n",
      "                                                                 \n",
      " gru_2 (GRU)                 (None, 1, 77)             36036     \n",
      "                                                                 \n",
      " dropout_4 (Dropout)         (None, 1, 77)             0         \n",
      "                                                                 \n",
      " gru_3 (GRU)                 (None, 77)                36036     \n",
      "                                                                 \n",
      " dropout_5 (Dropout)         (None, 77)                0         \n",
      "                                                                 \n",
      " dense_1 (Dense)             (None, 2)                 156       \n",
      "                                                                 \n",
      "=================================================================\n",
      "Total params: 144300 (563.67 KB)\n",
      "Trainable params: 144300 (563.67 KB)\n",
      "Non-trainable params: 0 (0.00 Byte)\n",
      "_________________________________________________________________\n"
     ]
    }
   ],
   "source": [
…
